…
      "text": [
-      "3\n",
-      "torch.Size([1, 8, 132, 15])\n",
-      "torch.Size([1, 16, 66, 8])\n",
-      "torch.Size([1, 16, 66, 8])\n",
-      "torch.Size([1, 32, 33, 8])\n",
-      "torch.Size([1, 32, 33, 8])\n",
-      "torch.Size([1, 64, 17, 4])\n"
+      "-------------------------------------------------------------------------------------\n",
+      "                    Layer (type)         Input Shape         Param #     Tr. Param #\n",
+      "=====================================================================================\n",
+      "                     ZeroPad2d-1     [1, 1, 263, 15]               0               0\n",
+      "                   BatchNorm2d-2     [1, 8, 263, 15]              16              16\n",
+      "                     ZeroPad2d-3     [1, 8, 263, 15]               0               0\n",
+      "          MemoryEfficientSwish-4     [1, 8, 132, 15]               0               0\n",
+      "       Conv2dStaticSamePadding-5     [1, 8, 132, 15]              40              40\n",
+      "                   BatchNorm2d-6     [1, 8, 132, 15]              16              16\n",
+      "    MaxPool2dStaticSamePadding-7     [1, 8, 132, 15]               0               0\n",
+      "          MemoryEfficientSwish-8      [1, 8, 44, 15]               0               0\n",
+      "       Conv2dStaticSamePadding-9        [1, 8, 1, 1]              18              18\n",
+      "      Conv2dStaticSamePadding-10        [1, 2, 1, 1]              24              24\n",
+      "      Conv2dStaticSamePadding-11      [1, 8, 44, 15]              64              64\n",
+      "                  BatchNorm2d-12      [1, 8, 44, 15]              16              16\n",
+      "      Conv2dStaticSamePadding-13      [1, 8, 44, 15]              24              24\n",
+      "                  BatchNorm2d-14      [1, 8, 44, 15]              16              16\n",
+      "   MaxPool2dStaticSamePadding-15      [1, 8, 44, 15]               0               0\n",
+      "         MemoryEfficientSwish-16      [1, 8, 22, 15]               0               0\n",
+      "      Conv2dStaticSamePadding-17        [1, 8, 1, 1]              18              18\n",
+      "      Conv2dStaticSamePadding-18        [1, 2, 1, 1]              24              24\n",
+      "      Conv2dStaticSamePadding-19      [1, 8, 22, 15]             128             128\n",
+      "                  BatchNorm2d-20     [1, 16, 22, 15]              32              32\n",
+      "      Conv2dStaticSamePadding-21     [1, 16, 22, 15]             144             144\n",
+      "                  BatchNorm2d-22     [1, 16, 22, 15]              32              32\n",
+      "   MaxPool2dStaticSamePadding-23     [1, 16, 22, 15]               0               0\n",
+      "         MemoryEfficientSwish-24      [1, 16, 11, 8]               0               0\n",
+      "      Conv2dStaticSamePadding-25       [1, 16, 1, 1]              68              68\n",
+      "      Conv2dStaticSamePadding-26        [1, 4, 1, 1]              80              80\n",
+      "      Conv2dStaticSamePadding-27      [1, 16, 11, 8]             512             512\n",
+      "                  BatchNorm2d-28      [1, 32, 11, 8]              64              64\n",
+      "                     Identity-29      [1, 32, 11, 8]               0               0\n",
+      "                  BatchNorm2d-30       [1, 8, 11, 8]              16              16\n",
+      "            AdaptiveAvgPool2d-31       [1, 8, 11, 8]               0               0\n",
+      "                      Dropout-32              [1, 8]               0               0\n",
+      "                       Linear-33              [1, 8]               9               9\n",
+      "=====================================================================================\n",
+      "Total params: 1,361\n",
+      "Trainable params: 1,361\n",
+      "Non-trainable params: 0\n",
+      "Batch size: 1\n",
+      "-------------------------------------------------------------------------------------\n"
      ]
     }
    ],
    "source": [
+<<<<<<< HEAD
     "print(len(blocks))\n",
…
